Version1/backend/static/nets/value.pth (torch, 646815 bytes, 25 tensors)

a1.weight f4 [16, 5, 3, 3]
00000000: 7a39 3dbf b091 02bf cb65 c4bf c51d 60bf
00000010: d421 8bbf 3134 66bf 40d8 01c0 d70c e4be
00000020: 7f94 a6c0 7736 043f cd62 d7bc 4b59 793f
00000030: be0c 5e3e 0932 d23e 0948 4dbd c99c 4e3f
00000040: e5ab 0abf c155 80c0 b25a 29bf f1ca 9abd
00000050: 7537 823f fd7f 95bd 9bbb 28be b777 2d3e
00000060: e471 ad3f 546a 1b3f b4f9 8540 cd45 a93f
00000070: 4bb9 e33e f3b5 91be 100e 863f d03e e23e
00000080: 9842 493f aa8d 203f 395e 55be 1e51 5ebf
00000090: 2e19 2d3e f155 1b3e 40bd 013e e01f 373e
000000a0: 2101 b93c d73a 1d3e 33f5 903e b9e5 c53d
000000b0: 2971 0c3e 4d65 1a3e a80b 0ac0 d066 4bbe
000000c0: c53c 8cbe 36bb acbe eb95 ba3d f589 03be
000000d0: b8c1 afc0 9d97 95bf f899 05bf dc09 f13f
000000e0: 686f 863d 5e61 803e 2219 5a3e 54eb 5abe
000000f0: a84e 59bd 59d9 9e40 895d 243f 0442 87be
00000100: b1e7 cdbf 508a 1dbe ea41 a6bd 81a9 44be
00000110: d393 cf3e db07 253e 2e1d 4ebf f1ae 8ebe
00000120: 5aac 383e 9cc0 c33e 93c0 6dbd e3bb a43e
00000130: aabd 703e 002a e3be 66e9 afbd 052c 123f
00000140: cb10 de3e 3d38 ddbb f63a 74bc 58f5 f63d
00000150: 026f e9bc 3671 173d 61e3 7abc bb08 093e
00000160: 9345 e03a 5e51 08be b077 b33f 28f2 64c0
00000170: 206d 07be 543b 37bf 33ab 33bf 7fec 2bc0
00000180: dd94 d6bf 2b2f 3dbf 67e8 2a3e ad53 8a3e
00000190: b7b2 3040 4001 ca3d 3aad d83e b95f 1cbe
000001a0: b570 ec3f 60cc 993f d4eb b23e 0444 4fbf
000001b0: 8f54 acbf 748b 1ec0 e7e7 5dbf 7d2c cabe
000001c0: 0596 c63e 8b37 433f 12fd e4bf ebfe 04bf
000001d0: 6e53 c33c ab64 89bf 57dd a23f a4a7 1abf
000001e0: 1a8a 9ebf d7ff 33c0 a43d 923d 827f 2e3f
000001f0: 668c 7c3d 641f 25bf 1057 a6bd 772d ee3c
00000200: 1245 203e a4b4 343e 3a08 d33d 5963 823e
00000210: 4997 493e 95b4 8d3e c46a 733e 6bf8 b0bf
00000220: 4fe5 04bf 1ae5 2d3f 65bd bebf 1b3a 86c0
00000230: 63f0 babf c9ca 0b3f 1878 99bf 59f0 4bbe
00000240: ec5f b13f cc29 23be a7ec 183d 1519 9f3f
00000250: 99d5 7a40 e1da ba3f b3de 94be 268d 5d3f
00000260: 2636 b83d 51bb 193f 19e1 2cbe 85b7 09bf
00000270: 898a 863f d277 76bf d469 e73f f3a6 0a3d
00000280: 9734 923f 53ac dfbd 5325 8abe d33b 9c3e
00000290: 3db7 b1be 3074 493d c6e3 533e 7bc6 603e
000002a0: 4e1a 06be 1c8c 7f3e 7a72 103d 7143 893c
000002b0: 1981 afbd 4010 543d 308b 113e 4ab5 ab3d
000002c0: 005b 3b3d 4954 913d 4fe3 e23d 70b9 49bd
000002d0: a034 923f fe97 e4bc b745 3bbf 7f5f 183e
000002e0: 73e6 8b3f dc12 a03f 06dc 01bf 1093 be3e
000002f0: dcd1 183f 115d febe 9151 5ebf 33b5 d23e
00000300: 3ced 19bf 525a a23d 4bb3 75bf f18d 22be
00000310: e82e d7be 3b5b 23c0 0c8e 41be e7cd a93d
00000320: 29ba a0bf 9f3c 17bf cc30 87bf 7055 1abf
00000330: d4ee 0abf 178d c2be 0fee 9cbf 31db 6d3b
00000340: 480a 6abf 052a 39c0 01da 98be e701 533f
00000350: ca99 be3f c56c 10bd c922 b6bf e9a7 1f40
00000360: 7fd1 ce3c e577 0b3e 0342 30be 20d0 913d
00000370: 1982 943e d63a eebc f55b 39be e596 4dbd
00000380: 03ae 613d 7277 8c3f 84e8 813f 0fce 293f
00000390: 7a25 8bbf 849a 933e a4fb 1c3e 864c 563f
000003a0: 1442 a53f 0654 833f ee7d 42bf a2e0 98bf
000003b0: 365a d2be 1363 5f3e 6c02 0abf 35ae b0be
000003c0: 107c f0be 1db7 533f d1e3 92bd 3d68 723e
000003d0: 837f e43e 191a 8c3e e867 4dbf 5194 573f
000003e0: 62bb 353d 14b9 6cbf 52b3 303f b21c 993f
000003f0: 3f94 6cbf bb88 443f 26a6 7ebf 12cf 7cbf
-0.7391583 -0.5100355 -1.5343565 -0.87545425 -1.0869699 -0.8992339 -2.0288239 -0.44541046
-5.205627 0.51645607 -0.02629223 0.97401875 0.21684548 0.410538 -0.050117526 0.80707985
-0.5416854 -4.010468 -0.66154015 -0.07558239 1.0173174 -0.072998025 -0.16477816 0.16940199
1.3550382 0.6070912 4.1867313 1.3224427 0.44477305 -0.2845913 1.0473042 0.44188547
0.7861724 0.6271616 -0.20836724 -0.86842525 0.16904137 0.15169503 0.1266985 0.17883253
0.022583546 0.15354477 0.28312072 0.09662957 0.13715042 0.15077706 -2.1569614 -0.19863439
-0.27390113 -0.3373658 0.09110626 -0.12845595 -5.4923973 -1.1686894 -0.5218806 1.8831134
0.06564218 0.25074285 0.2129865 -0.21378833 -0.053053528 4.9640317 0.64205223 -0.26417553
-1.6086332 -0.15384793 -0.08118041 -0.19205286 0.40542468 0.16116278 -0.80513275 -0.27867845
0.18034497 0.38232887 -0.05804498 0.32174596 0.23509851 -0.4436798 -0.08589439 0.5709842
0.43372187 -0.006751089 -0.0149066355 0.12058514 -0.028495315 0.0369732 -0.015313 0.13382237
0.0017110578 -0.13312289 1.4020901 -3.57728 -0.13225222 -0.715749 -0.70183104 -2.6863096
-1.676418 -0.739001 0.16690217 0.27016965 2.760908 0.0986352 0.4231966 -0.1527089
1.8471895 1.2015495 0.34945548 -0.8096316 -1.3463305 -2.4772615 -0.8668198 -0.39487067
0.3878633 0.76256627 -1.7889731 -0.51951474 0.023843493 -1.0733846 1.2723798 -0.6041205
-1.2385895 -2.8124902 0.07140663 0.6816331 0.061657332 -0.64501023 -0.081220746 0.029074414
0.15651348 0.17647034 0.103043035 0.2546642 0.19686617 0.27676836 0.23771197 -1.3825811
-0.519124 0.67927706 -1.4901549 -4.194593 -1.460461 0.546063 -1.1989775 -0.19915904
1.3857398 -0.15933913 0.037335064 1.242953 3.919287 1.4598047 -0.29076156 0.865435
0.08994703 0.6005145 -0.16882743 -0.53795654 1.0511028 -0.9627658 1.8079171 0.03385062
1.1422299 -0.1092154 -0.269816 0.30514392 -0.34710112 0.04918307 0.20692357 0.21950714
-0.13095972 0.24955791 0.035265423 0.016755791 -0.08569545 0.05177331 0.14213252 0.083841875
0.04574108 0.07096154 0.11078512 -0.049249113 1.142231 -0.027904507 -0.7315325 0.14880179
1.0929703 1.2505755 -0.50726354 0.37221575 0.5969522 -0.4968038 -0.8684321 0.4115387
-0.60127616 0.079273835 -0.95976704 -0.15874459 -0.42027974 -2.5524433 -0.18901843 0.08291226
-1.2556812 -0.59076875 -1.0561767 -0.6028662 -0.5427067 -0.37998268 -1.226015 0.0036293978
-0.9142194 -2.8931897 -0.29853824 0.8242478 1.4890683 -0.03525998 -1.4229366 2.4946234
0.02524638 0.13619955 -0.17212681 0.07119775 0.29005507 -0.02908079 -0.18101485 -0.050192732
0.05509759 1.0973952 1.0149083 0.66330045 -1.0870812 0.28828824 0.15330368 0.83710515
1.291079 1.0260017 -0.75973403 -1.1943552 -0.4108445 0.21815138 -0.53909945 -0.3450791
-0.46969652 0.82701284 -0.07172359 0.23672576 0.44628534 0.2736366 -0.80236673 0.8421069
0.044368155 -0.92469907 0.6902362 1.1961882 -0.92413706 0.76771134 -0.9947227 -0.98753464

a1.bias f4 [16]
00000000: 40f4 32be 28c2 4abf fd6a cebe 2e92 17bc
00000010: e28a 8fbe dffc a3be 9d98 91be 4862 9ebe
00000020: 4870 49bf 2254 91bf ccf4 843e 3bcf 57c0
00000030: 94cd bcbf 89b5 debe e661 1dbe ed23 493f
-0.17475986 -0.7920251 -0.40316 -0.009251161 -0.28035647 -0.32028863 -0.28436747 -0.30934358
-0.7868695 -1.13538 0.25968015 -3.3720233 -1.4750237 -0.43497875 -0.15369377 0.78570443

a2.weight f4 [16, 16, 3, 3]
00000000: 9454 43bf 8b2d 8e3f 8fd5 9cbf 7c3b 11bd
00000010: b240 81bf a087 8a3f cfd4 3dbf e6a0 423f
00000020: 56e0 f5bd bc5d 63bd f6b2 5fbf 1e81 1f3e
00000030: fcd3 243e e56e 4d3f a3ea 2b3e 27f6 dbbd
00000040: 84e3 0b3f f450 053e 01ca a0bd 814e 963e
00000050: ace0 523f cf5e f53e 2d14 24be f95e 8c3e
00000060: 9476 12bf f292 97be 1e0b b2bf d328 0ebf
00000070: 6518 adbe f218 5c3f 0be2 78bf 8899 6cbf
00000080: beb2 b43c 68c5 9cbf 43be 14c0 d97c aebf
00000090: cf12 73bf f8d9 dfbf 37ff 4dbf 46d0 993f
000000a0: 3772 12bf eca7 afbe 1fac 953f ff6a 07c0
000000b0: 360c 02bf 6378 46bf 1dbd 4f3f 0144 a2bf
000000c0: 8b6b 863f 7413 34bf dcc0 b7bf 75a0 9fbe
000000d0: 3ccb 063f e735 27bf 9d1c 01c0 bd5b 513e
000000e0: 1a0e 413f d264 a03f fbbf 9fbc a76e 61be
000000f0: ebcd b63f a17b f6be 13ed 10bf 5b2b 983e
00000100: 6d1c 703f 9f87 6fbd d2d3 02be 68db 9d3e
00000110: 6a61 80bf 92c3 073e f712 a53f 5d9d 7cbf
00000120: f914 003f 706f 663f 3787 403e ad0d 623e
00000130: dc44 4e3e 3146 95be 1489 353f 18e6 133f
00000140: 7027 053f 9290 8f3f 7d2a 55bf 64fb 463f
00000150: 1df0 823f e80d ebbe 0a5f cf3d 9090 343f
00000160: 559f ccbe b4eb 093e 8ee3 15bf 3e26 16bf
00000170: 3f25 1abf 9e1c 1ebf b947 dc3d f10d 14c0
00000180: a752 823f c0ee d3bf 4a8b 133f acc9 373f
00000190: ef02 efbf 2b26 06c0 1885 77bf d08e 74bf
000001a0: 500b d23f fdaf 9fbf 2521 0ebf bff3 4340
000001b0: 7418 78ba 2de1 2bbe 51f5 71bf 0650 22bd
000001c0: 1b7d 293f 6d41 9cbd af05 883f dd7f 28bf
000001d0: 90b6 463f 1b1e 453f a084 933f 0cd8 32be
000001e0: e692 7f3f ca1a 383f 4dcf a33e 9e59 c23e
000001f0: 6b65 85be cf2d 23be fc7d 45bf 97d0 53bf
00000200: 477b 083f 7f9d 63bd a7ad 92be 00fa d6be
00000210: 8457 003e 9e9e 5c3e f3c3 bf3f 8ba0 873f
00000220: 0156 b1bf 6282 86be 6c9b 46bf 38d8 1bbf
00000230: ccd6 10be 50b8 8b3e 2d85 0fbf 5fd2 e4be
00000240: 50de b1bf 4d02 2f3e a54c e03d 2cde 40bf
00000250: 91bd 96bf f9ed ac3e 4572 05bf 82ec 963e
00000260: a22f 85bf 8d66 07bf 16bc 75bf 1d8c 1ebf
00000270: 07ae 1b3d 54a8 5cbd 9fcf 93bc 587c 8fbe
00000280: 1c25 f13e 9f7d 323e ba55 e13e 52f4 283f
00000290: d9dd fc3e cf75 9bbf 5ff7 ef3f 28ad f03e
000002a0: 369b a63e c369 573f 16a7 96be 4bbd 74bf
000002b0: d23a 78bf d625 063f 925a ea3e 0de2 61be
000002c0: a0e1 373f 8d2c 6d3b 5aef eebe f9c2 703f
000002d0: b7b9 633f 8bce 993f 28c9 233f b33e 6c3f
000002e0: c1d5 f63d e14a 9e3e f604 d2bf a95f cdbe
000002f0: 7134 643e f8e5 b9bd 2c59 e13e d861 f53d
00000300: 2818 46bf b0c3 5a3e 0b65 61be 047f f43e
00000310: 6fe1 2a3f f405 fdbe eca3 753e 0fa9 b7bd
00000320: 9cae 6d3e ade9 4bbf efa0 1e3e 5ed5 31be
00000330: f7d0 eebd e275 473e 4ed4 5e3f 0ab7 6cbf
00000340: b39c 31bf 75df 88be f7e2 953d e885 4cbf
00000350: a087 fc3e b62d 8c3f a563 32bf f345 f6be
00000360: a2c4 743f aa00 a7be a1d4 123d d478 1b3f
00000370: d534 a7bf 426f 23bf 7e57 19bf 1df2 a2be
00000380: 2ae6 3a3e c6d1 e93c eb12 a13d d84c d9be
00000390: ea0f 943d 042c f5be 9c8f 03be 483c a9bf
000003a0: 96e3 b8be d3e1 89bf cdd9 413e 934b 563f
000003b0: 1cba b8bf e204 133f b8f1 a1be d72b ae3d
000003c0: 78af a53f a1dd bf3f 8de8 d63e 2b3b 8dbe
000003d0: d128 a73f 606c 093f d12e 3e3f d9ef 4c3f
000003e0: b5a0 47c0 c86a eabe 4050 15bf e6a5 b1bf
000003f0: 34be 8c3e eabb 573f cbb9 963f 8b2d 353f
-0.7630093 1.1107649 -1.2252673 -0.03545712 -1.0097868 1.082264 -0.74152845 0.7602676
-0.12005679 -0.055509314 -0.8738245 0.15576598 0.1609649 0.80247337 0.16788726 -0.10740309
0.54644036 0.13019162 -0.07851029 0.2935677 0.8237407 0.47923896 -0.16023321 0.27416208
-0.57212186 -0.29604298 -1.3909643 -0.5553104 -0.33807674 0.85975564 -0.97219914 -0.9242177
0.022057887 -1.2247744 -2.3241127 -1.363185 -0.94950575 -1.7488394 -0.8046755 1.2016685
-0.5720553 -0.34307802 1.1693152 -2.1159055 -0.5079988 -0.77527446 0.8114794 -1.2677003
1.050157 -0.70342183 -1.4355731 -0.31177106 0.5265386 -0.65316623 -2.0173714 0.20445152
0.7541214 1.2530768 -0.019500723 -0.22014867 1.4281591 -0.48141196 -0.56611747 0.29720578
0.93793374 -0.058478948 -0.12776116 0.30831456 -1.0029728 0.13258198 1.2896413 -0.9867762
0.50032 0.9001379 0.1880158 0.2207553 0.20143455 -0.29155114 0.7091229 0.5777297
0.520133 1.1215994 -0.83267957 0.7772734 1.0229527 -0.45909047 0.10125549 0.70533085
-0.3996531 0.1346882 -0.58550346 -0.586521 -0.60213083 -0.61762416 0.107558675 -2.313351
1.0181473 -1.6557236 0.57634413 0.717921 -1.867277 -2.0960796 -0.9668746 -0.95530415
1.6409702 -1.2475582 -0.55519325 3.061752 -0.0009464093 -0.16785116 -0.9451495 -0.039627098
0.6620652 -0.076296665 1.0626734 -0.65820104 0.7762232 0.7699906 1.1524849 -0.17465228
0.99833524 0.71915877 0.31994095 0.37958997 -0.26053938 -0.15935443 -0.7714536 -0.8274016
0.53313106 -0.05557012 -0.2864811 -0.4198761 0.12533385 0.21544883 1.4981674 1.0595869
-1.3854371 -0.2627135 -0.77580905 -0.608768 -0.14144439 0.27289057 -0.56062585 -0.4469175
-1.3895969 0.17090721 0.10952119 -0.7533901 -1.1776601 0.3377531 -0.52127486 0.29477316
-1.0405161 -0.52890855 -0.9599012 -0.61932546 0.038007762 -0.053871468 -0.018043337 -0.28024554
0.47098625 0.17430733 0.44010717 0.65997803 0.49388006 -1.2145327 1.8747367 0.47007108
0.32540292 0.84145755 -0.2942435 -0.9560134 -0.9696475 0.52401483 0.45772225 -0.22058888
0.7182865 0.0036189884 -0.46666986 0.94047505 0.88955253 1.2016157 0.63978815 0.9228317
0.12052489 0.30916503 -1.6407764 -0.40112045 0.2228563 -0.09077066 0.44013345 0.11981553
-0.7738061 0.21363711 -0.22011201 0.47753155 0.66750234 -0.49418604 0.23988312 -0.08967792
0.2321114 -0.79653436 0.15491079 -0.1736655 -0.11660951 0.19478562 0.870427 -0.92466795
-0.6937973 -0.26732984 0.07318681 -0.79891825 0.49322224 1.095145 -0.69683295 -0.48100242
0.9561254 -0.32617694 0.03584731 0.60731244 -1.3062998 -0.6384164 -0.5989913 -0.31825343
0.18251863 0.02854241 0.078649364 -0.4244144 0.07229598 -0.47885144 -0.12847751 -1.3221521
-0.36111134 -1.0772041 0.1893074 0.8370907 -1.4431796 0.57429326 -0.3162973 0.085044555
1.2944174 1.4989511 0.41974297 -0.27584204 1.3059331 0.5368099 0.74290186 0.8005348
-3.1191838 -0.45784593 -0.58325577 -1.3878753 0.27488863 0.8427111 1.177545 0.7077262

a2.bias f4 [16]
00000000: 2dd5 9cbf d8ba 3340 38ed 01bf 7894 303e
00000010: 36fc 48be cb60 fbbe 527a 1ebf 97f1 383f
00000020: dafd ac3f 2fce a83e 9d19 073e 4392 3cbe
00000030: 3fa4 9ebd b7ce 63bf 998b ac3f ea43 4cbf
-1.2252556 2.808279 -0.5075259 0.17244136 -0.19627461 -0.49097285 -0.61905396 0.72243637
1.3514969 0.32969806 0.13193364 -0.1841517 -0.07746171 -0.88987297 1.3480102 -0.7979113

a3.weight f4 [32, 16, 3, 3]
00000000: 116c 0ebf 23c0 1d3f d2fc cabf 070e e43e
00000010: 4649 8f3e 9b90 623d 2337 e03b 076a 24bd
00000020: aaf9 5b3d 82e9 bd3c fe9f 39be 2cad 7ebf
00000030: a39e e1b9 911d 023f 0ea2 11bf 6065 9cbe
00000040: cf7e 16bf 28b2 04be 4707 dc3e f144 303e
00000050: 07d3 d93e 2bf9 68be 4c8d 2abf 5a7e 29bf
00000060: a505 b2be 94a2 7dbf df2c 9cbd 7c85 c53e
00000070: 3b96 753f 79b6 783f 647a dd3e c861 e63e
00000080: f4f8 d03e be84 a43e b96a ff3e e97a d33e
00000090: 1690 153d 83cd a63d 2b46 9ebd 70fe cd3c
000000a0: 4f2b 7e3d afa0 97bc 3cec f33d 1c8a 8f3d
000000b0: c817 2dbd 6666 77bf 6c08 2b3f 66f2 94be
000000c0: 177a b83e abb6 9b3f 130f 9a3f b6c4 963f
000000d0: c20e af3f c3dd 8b3f 2794 b43d 2bb5 1dbf
000000e0: 2845 75bd 9849 28bf fbc8 833f 6f1e 11bf
000000f0: 7399 69bc 267e 4b3f a74e 1c3f 0a89 723e
00000100: 405e 57be 4ab5 fd3e 49a3 2c3d aab1 343f
00000110: 5dbc 233f a632 053e 562f 47be d67a c03d
00000120: 420a f43e 9bf9 4e3f cbdf 273e bc30 45bf
00000130: 4688 203e b73b 8d3e d9c7 063f 9a0e 983d
00000140: acae 60bf 914d 443e 7a74 b33e 8955 98bd
00000150: 40fa 31bf 896a 1b3f dd27 69be edbc 02c0
00000160: 2f7b c13e 4627 8bbe 5412 01be f742 febe
00000170: 0200 94be 0ec7 a1be 89b9 afbe cc52 11bd
00000180: 1755 82be c382 cfbe e730 26bd 7884 a8bc
00000190: b055 353e 6c2d c73a 4c65 013e 27f3 1fbc
000001a0: 1401 bebd fe46 92bd 278b d7bd 6602 3c3c
000001b0: a3b0 8c3b 059a 623e 3532 403e 5ba9 2a3f
000001c0: 0079 a13e 98f6 ca3e 52d7 333f 3b94 683e
000001d0: 803d 963e 4fb5 53bd 9343 a13e b100 e8ba
000001e0: 6d54 a0be 3103 42bf e241 4dbf fade 4bbf
000001f0: 6938 c7be 8b19 8abe 0455 ea3e f87b 40bf
00000200: 610a 42be c9d3 833e 350c 9f3d e753 3dbf
00000210: 9e59 11bf e05e 6abe a694 cbbc ad5d 97bf
00000220: 851c 223f 9330 913f ba8c cc3e 4847 603f
00000230: 234b 8d3e e8d3 913d e1c9 bc3e 8ccb 813f
00000240: 7426 a23f 85bd e93d bfd3 8c3f f4c6 3bbe
00000250: 4dc0 f73c 356b c03f 70e6 8b3f fb9c 393f
00000260: 494c b43f f4f0 9b3f 9a4c 1fbf 8553 aabe
00000270: 56ce d73e 9a36 583f a1cf bebe 1873 8a3e
00000280: fff3 04be 0585 e43e e091 9b3d 6ffe 2740
00000290: 5dea 98bf 4837 83bf bc02 9cbe 1668 bcbe
000002a0: fc0f 8dbf 6fb7 32bd cf52 bd3e 6feb 943f
000002b0: fb56 6c3f b4c5 9dbe b285 55be 3e6a cebf
000002c0: 722c 40bf 30fb 843d 4745 5ebe 826e cc3e
000002d0: c738 84bd dad7 a3bd 8b02 b8bc 81b8 d03d
000002e0: 9f2e 833c 4c37 c73c 0aab 143d 7214 713d
000002f0: 8085 a53d 42c8 d73d da4f 0bbf e364 dcbe
00000300: 0c48 a83e 3cbd a6bf 6809 c8bf f3d4 5bbe
00000310: 39b7 d53e 7460 4a3f 8cc8 793d 831c 74bf
00000320: 816f 263f c628 793e 26c3 54bf 541b 843e
00000330: 2bd4 a5be fe30 74bf dbe7 643f 255e c83f
00000340: 36ae b13f a755 b9bf 3be6 193d 4854 d33e
00000350: 2215 46bf 090d aa3e 722e a5be b084 8e3e
00000360: f1ab 2e40 ba19 253f 6c79 0740 ff2b de3e
00000370: 89c1 983f b756 e5bd 5dc8 9cbf f92f 903f
00000380: 2ebc 8f3f a53a 0ec0 8bee 5d3e 16c4 003f
00000390: bdf7 a23e 5996 c23f 0296 6ebf 94b4 4c3f
000003a0: 33f5 5d3f 95aa f63e 1e2b c9be 80f5 b3be
000003b0: d7a3 b6bd ca6f 8ebe bbe2 07bf 4ed8 05bf
000003c0: fda8 d4be 8f3c c7be ca6a 14bf 463e aebd
000003d0: 2146 a33d dd0e ac3c 76bd b9bd a5e4 5fbd
000003e0: 0a1b 92bd e753 13bd 6e1f 19bc 1565 1c3e
000003f0: b640 47be 143d 9dbf 7194 05bf b417 4c3f
-0.55633646 0.616213 -1.5858405 0.44541952 0.2798559 0.055313688 0.0068425103 -0.040140178
0.053704895 0.023182634 -0.18127438 -0.9948299 -0.00043033538 0.50826365 -0.568879 -0.30546093
-0.58787245 -0.12958586 0.42974302 0.17213799 0.42543814 -0.227513 -0.6662185 -0.6620842
-0.3476993 -0.990762 -0.07625746 0.38578403 0.9593236 0.9715343 0.4325744 0.44996476
0.40814936 0.32132524 0.4988611 0.4130471 0.036514364 0.08144667 -0.07728227 0.02514574
0.06205302 -0.018509237 0.119102925 0.07008764 -0.042259008 -0.9664062 0.66809726 -0.29091185
0.36030647 1.2165121 1.203585 1.1778781 1.3676379 1.0927051 0.0881732 -0.61604565
-0.059880406 -0.65737295 1.0295709 -0.5668706 -0.014257777 0.7948936 0.61057514 0.23685089
-0.21032047 0.49552375 0.04214791 0.70583594 0.63959295 0.13007602 -0.19451651 0.09398429
0.47664076 0.8084962 0.16393964 -0.7702749 0.15676984 0.2758462 0.52648693 0.0742466
-0.8776653 0.19170214 0.35049802 -0.074381895 -0.69522476 0.60709435 -0.22769113 -2.042781
0.37789294 -0.271784 -0.12604648 -0.49660465 -0.28906256 -0.3159718 -0.3432124 -0.035479352
-0.25455543 -0.4052945 -0.04057398 -0.020570979 0.17708468 0.0015196032 0.12636298 -0.009762562
-0.092775494 -0.07142447 -0.10524588 0.011475181 0.0042935177 0.22129066 0.18769152 0.66664666
0.31537628 0.3964126 0.7025043 0.22712795 0.29343796 -0.05168658 0.31496868 -0.0017700401
-0.31314412 -0.7578612 -0.80178654 -0.7963711 -0.38910225 -0.26972613 0.45767987 -0.7518916
-0.18949272 0.25747517 0.07766 -0.7395615 -0.5677737 -0.22887754 -0.024851155 -1.1825463
0.6332477 1.1342949 0.39951116 0.87608767 0.27596387 0.07120496 0.3687277 1.0140243
1.2667985 0.11413101 1.100212 -0.18337613 0.030243063 1.5032717 1.0929699 0.7250516
1.408578 1.2182908 -0.6222626 -0.33266845 0.4214961 0.84458315 -0.37267783 0.27040935
-0.12983702 0.44632736 0.07596183 2.6249044 -1.1946522 -1.0251245 -0.30470836 -0.3679816
-1.1020503 -0.043631967 0.3697724 1.1634349 0.9232022 -0.30814898 -0.20851782 -1.6126173
-0.7506782 0.06493223 -0.21706115 0.3992806 -0.06456142 -0.08000155 -0.02246215 0.10191441
0.016013442 0.02431836 0.036295928 0.05885739 0.08082104 0.10536243 -0.5441872 -0.4304572
0.32867467 -1.30265 -1.562787 -0.21467952 0.4174135 0.79053426 0.060982272 -0.95356005
0.6501389 0.2433196 -0.8311027 0.258021 -0.32388434 -0.95387256 0.89416283 1.5653731
1.388129 -1.4479264 0.03757308 0.4127524 -0.77375996 0.3321307 -0.32261997 0.27835608
2.7292445 0.6449238 2.116786 0.4339294 1.1934062 -0.1119818 -1.2248646 1.126464
1.1229303 -2.2223294 0.21673028 0.50299203 0.31829634 1.5202132 -0.93197644 0.7996304
0.8670227 0.4817702 -0.39290708 -0.3514824 -0.08917969 -0.27819663 -0.5308034 -0.5228318
-0.41535178 -0.3891339 -0.5797545 -0.085079715 0.079723604 0.021003181 -0.0906934 -0.05466141
-0.071340635 -0.035968687 -0.009345872 0.15272935 -0.19458279 -1.2284265 -0.5217963 0.7972367

a3.bias f4 [32]
00000000: 988f 213e 61f4 f2bf add5 12c0 b629 cabe
00000010: 309d fabe d1ce 2a3d 81d3 e5be dedc ac3e
00000020: 082f 0cbe 0a23 3940 1b11 dcbe 1443 08bf
00000030: 3ec6 30bf 8835 b2be adb4 e33f 8980 dc40
00000040: 792f f6bf bc69 4e3f e36e 8140 4b90 303e
00000050: 88c4 cc3e ffdf f93e 8ec2 c9be d0fc d7bf
00000060: 0612 69c0 23fa 173f cf23 c93f 4a7a 8040
00000070: 2bb4 253f 4bfc 3840 22b3 a33f a0b1 36be
0.15777433 -1.8980829 -2.2942917 -0.39484948 -0.4894805 0.04170114 -0.44887927 0.33762258
-0.13689816 2.8927636 -0.429818 -0.53227353 -0.69052494 -0.34806466 1.7789513 6.8906903
-1.9233238 0.8063009 4.044786 0.17242543 0.3999369 0.48803708 -0.39406246 -1.6874027
-3.641725 0.59366053 1.5714053 4.014928 0.6472804 2.8903987 1.2789042 -0.17841196

b1.weight f4 [32, 32, 3, 3]
00000000: 2731 663a d250 85bd 4423 5bbe c23f de3e
00000010: 9643 9b3f c3ff 533b 4da9 8dbf e6bc 65bf
00000020: d814 2ebf baac 95bf 379e b2bd e291 fd3e
00000030: 1d36 60bd f3be 60be c819 f13d 7d52 463e
00000040: e29a b2bf 252f 50bf bb9c d1bf 2d40 b43f
00000050: 8151 0240 114c 3dbe e658 fd3f 9775 00be
00000060: 8c96 4bbf b9f7 74bf 5abe 0ebf 89c9 b9be
00000070: 6b56 2abf 1f82 8a3e 7869 603f 292a 8cbf
00000080: c2e5 d2bf e6fa 17be e38d bc3e 4a88 aebc
00000090: 691a e23e 6374 36bf 0de0 813f 69e5 e73e
000000a0: df4c 8e3e 849e d03e cc76 3a40 88ca b7be
000000b0: 3a05 823d 8140 2fbf 0ec7 333a ff21 5f3f
000000c0: 673f 133f 9cf4 2f3f b52b d6bf 1699 1240
000000d0: 7250 85bf 5b3a 0140 b956 5bbe 2fed 16bf
000000e0: 0aa7 4dbf c931 edbe 8eb0 833f 1ce4 28bf
000000f0: e9db f1be 9aeb fdbf bddf 53bf cacc 7fbf
00000100: 67f8 e93e f068 323b ae41 553f c3d1 173e
00000110: c8b8 b13f 8745 84bf d9b5 9f3f a32e 963f
00000120: baf1 0bbd fe3e 9cbc 7f49 16bc 34b4 32bd
00000130: 541d 74bd d274 ea3c bbbb a3bc b159 873c
00000140: 8722 2f3c 2179 41c0 a0b7 22be b4c1 5abf
00000150: 7ec2 fb3d c4e6 32bf 14b2 e4be f75d 353e
00000160: 6b38 10be 946a ad3e 76bf babf 6a91 64be
00000170: ddbf 143f f507 983e 7e28 8a3f 258c 08bf
00000180: f322 313f 3a95 8ebf 7b1c ab3e cef2 0d3f
00000190: 251e 57bf 3e93 253f 1c49 f1be 7828 18bf
000001a0: 84da 73bf 55eb 2dbf 83a4 f53e 9d20 3a3f
000001b0: c371 08bf 4458 1340 30d4 c9be aa89 28be
000001c0: adc4 a8bf 3712 313f 12eb 7fbf 982a 3d3f
000001d0: 4573 023f d21c e0be 8f4a 4f3e 92c7 13bf
000001e0: b7ca f3be 6b09 9bbe a357 b1be 988a ac3d
000001f0: 9f84 a1be eb46 1f3f 19f3 723e 7f88 313d
00000200: 503b d73d 428e b33d 97a8 083f 96a4 1b3f
00000210: 303f 8fbc 414b 09c0 5962 873d e42b 283e
00000220: 21d3 cbbd 92ae acbe 8e89 73be 4313 c3be
00000230: f280 3ebf f59e 743e 07f0 99bf d4d3 ae3f
00000240: 4c6c c23f e514 ddbe e8ba ec3d a773 9c3f
00000250: b973 603f cd15 503f 5ece 54bf ebdb 7f3e
00000260: 19fb 863f ed37 1fbe 6db3 d23f de2a 00be
00000270: 289b e33e 2d02 7fbf 66ca 30be 8cb8 c03e
00000280: fa6d c1be 7c54 f83e 132a 2e3f c0a5 31bf
00000290: ecfd 62be 82c3 a7bf 1136 983c adc0 e13e
000002a0: 4da8 633f 358c 9a3d ecf2 bb3d 992c 9cbf
000002b0: 9d3d 1cbe ffaa 8abf e7c7 5e3f 2085 d1bf
000002c0: 0c9c 42be 5a5b 00bf 67f2 1cbf 8f9e 01c0
000002d0: ac98 393d e024 123f e625 a83e 4b8a e7bd
000002e0: b795 a8bf ca93 8c3e de29 03bc 130a 8d3f
000002f0: b9dd 7dbf 13b5 883f a37f 923f 6986 893f
00000300: e2c8 693f 6bab 4f3f 2449 ffbc d77f 9c3f
00000310: 3409 f9be 6ecd f23e 3fb1 8c3e 09e9 e43e
00000320: 7fcd 0bbf 1b4a 1fc0 e918 aa3d dc4a 5bbf
00000330: 03e1 06bf cf96 843f 80f2 edbe 828a a2bf
00000340: 04f9 0dbf 990a 8abf 4f8b 973f 7aff 513e
00000350: 3830 aebf 13cd 50bd 6a84 6dbf ed52 51bf
00000360: 2977 f6bd 6878 463f 9ef1 74be 8975 c5bf
00000370: b47f 7abd 91bd aa3f 622c 803f 60f1 3a3e
00000380: a64d 09be 0b15 82bc 37ce afbd 381b 7d3f
00000390: ac2a 2d3f 9973 cdbb 6e6b e0bf f75f 59bf
000003a0: 2f28 993f b910 263f a0be 5a3f cafb 3e3f
000003b0: 9405 143e f1e2 633e 49e8 edbe e03d 2e3f
000003c0: 8768 1e3f af68 32bf 39a8 d1bf 6542 14bf
000003d0: 59b0 a33f 7907 f93d e300 80be d00f 023e
000003e0: 790c 8ebf b8cc 98bf d01c 4abf dbd0 dc3e
000003f0: 1eba 463f 4448 75bf b3b2 803d 8676 ddbf
0.0008781128 -0.06509556 -0.21400172 0.43408018 1.213 0.003234849 -1.1067291 -0.8974136
-0.68000555 -1.1693337 -0.08721583 0.49525362 -0.054739106 -0.21947841 0.117724955 0.19367404
-1.3953516 -0.81321937 -1.6375955 1.4082085 2.0362246 -0.18486048 1.9792755 -0.12544857
-0.7952659 -0.95690495 -0.55759203 -0.36286572 -0.66538113 0.270524 0.8766093 -1.0950366
-1.6476367 -0.14841804 0.36827 -0.021305222 0.44160774 -0.7127134 1.01465 0.45292214
0.27793023 0.40745938 2.9135008 -0.35896707 0.06348653 -0.684578 0.00068579696 0.8716125
0.5751862 0.6873262 -1.6732088 2.2905936 -1.0415175 2.0191867 -0.21419801 -0.58955663
-0.80333006 -0.46327046 1.0288255 -0.6597307 -0.4723809 -1.9837525 -0.8276327 -0.9992186
0.45697328 0.0027223192 0.83303344 0.14826111 1.3884516 -1.0333718 1.247737 1.1732982
-0.034166075 -0.019073006 -0.009172796 -0.043628886 -0.059598282 0.028620157 -0.019986978 0.01652226
0.010689384 -3.0230181 -0.1589036 -0.8545182 0.12292956 -0.6988337 -0.44667113 0.17711626
-0.14084022 0.33870375 -1.4589679 -0.22321096 0.5810526 0.2969357 1.0793607 -0.53338844
0.69193953 -1.113929 0.33420166 0.55448616 -0.8403037 0.646778 -0.4712609 -0.5943675
-0.95255303 -0.67937213 0.47977075 0.72706014 -0.53298587 2.3022623 -0.394197 -0.16458765
-1.3185021 0.6916842 -0.99968064 0.7389312 0.5095714 -0.43771988 0.20243286 -0.57726395
-0.47615597 -0.30280623 -0.34637174 0.08424872 -0.31546494 0.6221759 0.23725547 0.043343063
0.1050936 0.08767368 0.5338225 0.60798013 -0.017486185 -2.1452181 0.06610555 0.16422993
-0.09952379 -0.33726937 -0.23782942 -0.38100633 -0.74415505 0.23888762 -1.2026376 1.3658395
1.51893 -0.43180004 0.11559087 1.2222794 0.8767658 0.81283265 -0.8312739 0.24986236
1.0545379 -0.15548678 1.6461006 -0.12516353 0.44454312 -0.99612695 -0.17264709 0.37640798
-0.37779218 0.48501956 0.6803295 -0.6939354 -0.22167176 -1.3106539 0.018580468 0.44092312
0.8892868 0.075462736 0.09177193 -1.220111 -0.15257879 -1.0833434 0.87023777 -1.6368752
-0.1900484 -0.5013939 -0.61307377 -2.0253026 0.045311615 0.57087517 0.32841414 -0.11305674
-1.3170689 0.27456504 -0.008005587 1.10187 -0.99166447 1.068026 1.1445202 1.0744144
0.9132215 0.8112094 -0.031162806 1.2226514 -0.48639834 0.47422355 0.27478978 0.44709042
-0.5461044 -2.488898 0.083055325 -0.856611 -0.5268709 1.0358523 -0.46474075 -1.2698519
-0.5545809 -1.0784484 1.1839389 0.20507613 -1.3608465 -0.050976824 -0.9278017 -0.8176716
-0.12034447 0.77527475 -0.23920295 -1.5426494 -0.061156943 1.3339101 1.0013545 0.1825614
-0.13408527 -0.015879175 -0.08584254 0.9886966 0.6764324 -0.006269884 -1.7532785 -0.84912056
1.1965388 0.64869267 0.8544712 0.7460295 0.14455253 0.2225454 -0.46466282 0.68063164
0.61878246 -0.69690984 -1.6379462 -0.5791381 1.2788192 0.121596284 -0.25000677 0.12701344
-1.1097556 -1.1937475 -0.78950214 0.43128094 0.7762774 -0.95813394 0.06284084 -1.7301795

b1.bias f4 [32]
00000000: abc0 82c0 ae87 22c0 3e41 4b40 c4c0 7dbf
00000010: bf16 46c0 8c5b d43f f7b3 18be 2bd2 47bf
00000020: 00f8 2640 af37 dc3f 0b86 a9bf 1e57 9cbf
00000030: f7be ee3f 106d 3dbe 6576 9fbe f661 cabf
00000040: 5cae 063f 10e3 c1bd fcd3 7c40 df5c 47be
00000050: 1e42 e9be 06f1 6abf 0ecb e4bf 2e2d 10be
00000060: 2d09 d7bd 2ea4 1ac0 720f e83f b4cc d4be
00000070: 49b0 e0bd 2906 ae3f 69e0 3940 6302 443f
-4.086019 -2.5395312 3.175857 -0.9912226 -3.0951383 1.6590438 -0.14912401 -0.78055066
2.6088867 1.7204493 -1.3244032 -1.2214086 1.8652028 -0.18498635 -0.31145015 -1.5811145
0.526098 -0.09467137 3.9504385 -0.19469021 -0.45558256 -0.9177402 -1.7874467 -0.14079735
-0.10499797 -2.4162707 1.8129714 -0.41562426 -0.10971124 1.359563 2.904322 0.7656614

b2.weight f4 [32, 32, 3, 3]
00000000: 8c2a 5e3e 0de9 85be f3fa 36be 5cb7 a03d
00000010: 3dc5 9dbe 5c7f 1b3e b109 5ebd f060 7ebe
00000020: 5e65 08be 50ca 013e 4a09 ac3e ee3e cebd
00000030: 088f 59be 7e39 a63e d05f 893e 0551 03bd
00000040: 77cd ae3e e2b4 0a3f 6cde 52be f51c 08be
00000050: 6c2b 983e d50a 143e 3a0a 1bbe 5df4 b83e
00000060: c2ec 983d 03ac f6bd a23d a13c 9c23 1b3e
00000070: eddf c9bd 6a70 b03d 8055 98bd 607f e03e
00000080: ef86 98be e451 983e 0bb9 943e 84f6 833d
00000090: 6bac adbe add1 a2bd 3b26 04bf e96a 943e
000000a0: b951 b1be 0c11 3d3e 6430 adbd a7e3 51be
000000b0: d5e4 12bf c4c2 e53e f2c4 1b3e 21da 583d
000000c0: e920 34be 6c8a efbe afa2 b93d 71a4 a7bd
000000d0: c79c 41be 52e1 28bf af41 3abc 7e89 3f3c
000000e0: ead7 be3c 94a0 0e3c 248c 02bd e7e8 a13c
000000f0: d0a7 8e3c c9aa 68bb 28dd e33c 0cb6 683e
00000100: c92c c63d 2acc 993d 7a5b 0e3f bf6f 31bf
00000110: 8e88 94be f560 febe 2eb1 b23e 884e e23e
00000120: cd8a 0cbd 8677 453e 8904 533d 8853 cdbd
00000130: fa72 c8be 174d 45bf f626 843e a580 8b3d
00000140: e387 8c3e 72fd fcbe 398c cb3c 7479 043f
00000150: 0f13 b43d 7d70 cabb 1d9d 24bf bf70 543e
00000160: 44ef 2ebd 338e 18bd 9ead 46be e76f 59bf
00000170: 81e5 1abf 6bf9 31be 13e6 ad3e 5c67 c63d
00000180: b50b d3bd 1c26 fdbe 3c79 193f 9eb5 393f
00000190: 6b3a 24be c188 f33e 82d9 9b3e 2a1b a13d
000001a0: a79d c1bc 2d41 63be 97cc 7a3e d948 713d
000001b0: ea87 c7be 1224 ce3d 8cad 5ebe ad28 6c3d
000001c0: a6ca 2e3e cdc4 1b3e eee7 b33c 28cb 003f
000001d0: 702d 8c3e 8ce7 49bd cdf5 e2bc 2151 71bd
000001e0: 0f08 fb3c 10e1 0ebd 685a 19bd 3072 223d
000001f0: b8dc 5b3d 0d76 69bd 6ead 6a3d a979 af3c
00000200: 82ed 733e 3e96 89be 1729 4fbe 29c1 afbe
00000210: ba76 0e3e b89c dabc fec1 37be 1c88 bcbe
00000220: 06ab 04bf 831d 41be e011 cabe eb7f db3d
00000230: 04cb 803e 2515 033e 0f18 96be ecf1 2ebe
00000240: 32e4 2bbf 37d3 86be 0be6 4f3e 4605 08be
00000250: 8471 11be 4c15 ebbd 49b6 3abe 9d65 bdbd
00000260: 3933 83be 7d7f 9c38 d30c 9d3c 4807 623d
00000270: 0960 cbbc a3fd 85bd bac5 d7bc a323 843c
00000280: 7b0c 743c 9e29 91bc e1de 67bd 2dd9 37be
00000290: 468d 653e 4a07 aabe 5c0d 453d 5b27 8f3e
000002a0: 1bec b1be 323b 453d 8e67 a3be 5508 b4bc
000002b0: b23e a03c 92e1 6ebb 71d5 783d 8264 a83c
000002c0: 51a5 173d db50 933d 60e3 db3c 2282 4abd
000002d0: a993 75be 5fb8 81be 90cc 4ebe 513b dcbe
000002e0: 9092 52be 2d56 363e 3595 a7be 6332 a1be
000002f0: c806 dd3e de40 a3bd fe37 f2bd c2ce 3f3e
00000300: c03b febe 84e8 25be e89b 133d 6aaf 82be
00000310: a320 edbe 5c0e 08bd 13cb f83c e1eb 9fbe
00000320: a43f 85be de3d 5b3e 4746 8abe 529f 683e
00000330: 5de4 06bf 8348 07bd 3f29 aabd 5d7f 95bc
00000340: 96cf e9bc 0b2f 503d af15 943c 17e6 dfbc
00000350: 50d7 12bd 8d74 bbba da86 4c3d 5867 1ebd
00000360: 12f9 8abc 5b3c 48bd 21e7 b1bb 4495 c23b
00000370: dcda 6bbd 0e08 9bbd 7f47 35bb fd39 31bd
00000380: d23f 243d b695 52bd 93d0 88be 16c6 c43d
00000390: 6bf1 0dbe e8a8 2c3d 8bc7 9a3e 36cd f5bb
000003a0: 5518 90bc 8e30 b73c 8b8d 47be 690b c8be
000003b0: 258b 44bd df52 8cbe 4d69 51be 312f c93e
000003c0: 8601 43be b90d 403e 0bef cd3c f19c fcbe
000003d0: 258b e43e 2e4d f2be 4377 713e a314 95bd
000003e0: 28ea b13e ac1d 63be c258 0f3e e3f0 3ebc
000003f0: 67d3 063c 699e bb3c d5c3 28bd 64a9 043d
0.21695918 -0.26154366 -0.17869167 0.07847473 -0.30814543 0.15185302 -0.05420846 -0.24841666
-0.13319919 0.12674832 0.33600837 -0.10070597 -0.21245968 0.32465738 0.26830912 -0.032059688
0.34141132 0.54182255 -0.2059266 -0.13292296 0.29720628 0.14457257 -0.1514062 0.36123934
0.07467033 -0.120445274 0.01968271 0.15150303 -0.098571636 0.08615191 -0.07438183 0.4384718
-0.29790446 0.29749978 0.29047427 0.064435035 -0.33920607 -0.07950149 -0.51620835 0.28987816
-0.34632662 0.18463534 -0.084564954 -0.20496999 -0.5738042 0.44875157 0.15211847 0.0529424
-0.17590679 -0.46785295 0.090642326 -0.081856616 -0.18907462 -0.6596881 -0.011368199 0.011690496
0.023296315 0.008705277 -0.03187193 0.019764377 0.017414004 -0.0035502187 0.027815416 0.22725695
0.09676511 0.07509644 0.5560833 -0.69311136 -0.29010433 -0.49683347 0.34900802 0.4420054
-0.03431206 0.19283876 0.051517997 -0.10025698 -0.3915022 -0.77070755 0.25810975 0.06811646
0.27447423 -0.49412113 0.024847137 0.5174782 0.08792698 -0.0061779604 -0.64302236 0.20746134
-0.04270865 -0.037244987 -0.19402167 -0.84936374 -0.60506445 -0.17380302 0.33964595 0.09687683
-0.10304967 -0.49443138 0.59950614 0.7254275 -0.1603791 0.47565272 0.30439383 0.07866509
-0.023634745 -0.22192831 0.24492107 0.058907364 -0.38970882 0.100654736 -0.2174589 0.05765598
0.17069492 0.15211792 0.021961179 0.5030999 0.27378416 -0.049293086 -0.027705098 -0.05891526
0.030643491 -0.034882605 -0.037439734 0.03965968 0.05367729 -0.056997348 0.0572943 0.021420317
0.23821071 -0.26872438 -0.20230518 -0.34327057 0.13912478 -0.026686057 -0.17945096 -0.36822593
-0.5182346 -0.18858914 -0.39466763 0.10717758 0.2515489 0.12801035 -0.2931523 -0.17084473
-0.67145073 -0.2633302 0.20302598 -0.13283262 -0.14203459 -0.114786714 -0.18233599 -0.09247897
-0.25625017 7.462406e-05 0.019171154 0.055182725 -0.024826067 -0.06542518 -0.0263394 0.016130274
0.014895554 -0.01772004 -0.05660904 -0.1795394 0.22417173 -0.33208686 0.048108444 0.27959713
-0.34750447 0.048152156 -0.31914943 -0.02197663 0.019561145 -0.0036450368 0.06075043 0.020555738
0.037022892 0.07193156 0.02684182 -0.04944051 -0.23982109 -0.25335976 -0.20195222 -0.43014005
-0.20563722 0.17806311 -0.32731023 -0.31483755 0.43169236 -0.07971357 -0.11827086 0.18731216
-0.4965496 -0.16201979 0.036037356 -0.25524455 -0.46313962 -0.03321682 0.03037027 -0.3123465
-0.26025116 0.21410319 -0.27006742 0.22717026 -0.52692205 -0.033028137 -0.08308648 -0.018249208
-0.028541368 0.050826114 0.018076746 -0.027331395 -0.03584987 -0.0014301703 0.049933292 -0.038672775
-0.01696447 -0.048885684 -0.005429164 0.005938204 -0.057581767 -0.07569896 -0.0027661023 -0.043268193
0.040099926 -0.051412307 -0.2672163 0.096080944 -0.13861625 0.04215327 0.30230364 -0.0075012697
-0.017589727 0.02236202 -0.19487588 -0.39071205 -0.04798426 -0.27406976 -0.20450325 0.39293817
-0.1904355 0.18755235 0.025138399 -0.49338487 0.4463741 -0.47324508 0.23580651 -0.07279327
0.3474896 -0.22179288 0.13998702 -0.011654112 0.008229113 0.022902684 -0.041202385 0.032388106

b2.bias f4 [32]
00000000: 0cca 68be f5c0 073f 40f3 5abf 3584 453d
00000010: c7dc 62bf 97f9 023f 49f4 0c40 9396 acbf
00000020: e87b 03c0 ee2e 9abe 081b 90bf 3eea d1bc
00000030: 654e c03e c375 b140 b78c fa3f 1974 1fbf
00000040: 2654 8d3e cc4d b040 d1c5 263e 15e5 81bd
00000050: 7657 5dbf d8f6 a1be a7fc 4640 e822 bdbd
00000060: c5bc 80bf f08c bdbe 8b93 6240 3ae8 413e
00000070: a0ac 2bbf 5a40 ddbf 6887 03be 2137 21be
-0.22733325 0.53028804 -0.8552742 0.048221786 -0.8861813 0.51162094 2.20241 -1.3483452
-2.0544376 -0.3011393 -1.1258249 -0.02562439 0.3755981 5.545625 1.9574193 -0.62286526
0.27603263 5.5094967 0.16286398 -0.06342522 -0.8646158 -0.3163364 3.1091707 -0.092351735
-1.0057608 -0.3702159 3.5402553 0.18936244 -0.6706028 -1.7285264 -0.12844622 -0.15743686

b3.weight f4 [64, 32, 3, 3]
00000000: 1155 cfbc 257c dbbb eaf3 4cbc c63c 363c
00000010: 8937 ebbc fa32 68ba c654 97bc 3662 dc3c
00000020: 36b1 ccbb c5b7 ffbb 3722 2e3d d27c 153c
00000030: f6d3 09bd 26a6 88bd 9332 c5bb 46ea b6bd
00000040: 1105 97bb 7785 a93c fe69 e5bd 2643 12be
00000050: 9283 6fbd 8d9a cabc dd73 9c3c c648 283d
00000060: b107 e2bd 35f3 05be fd0e fabd 3b2a 16bc
00000070: bd7f a7bd 53ee 7c3c 0f38 ccbd 11ed 1dbd
00000080: 0f61 72bd 1080 dabd c9ec 423d 59c3 5cbd
00000090: d435 61bd 258c 6ebd c975 1e3d 6602 03bd
000000a0: 40ba 4cbc c2be 99bd b3ca e0bc 1893 86bd
000000b0: a0e2 62bd baa2 7abd 943e 61bd 5aeb 96bd
000000c0: a5e1 d83c b4a1 a3bd fe59 84bd f50e 7bbd
000000d0: 74b7 2dbd 8670 cc3b 0372 bebd 8eb8 85bd
000000e0: ba7b 1fbe 93a8 bfbd 071b 22bd 2345 9fbd
000000f0: 404b 6fbd 33a1 89bd ae85 b7bd 531e d1bd
00000100: 7ff7 dcbd 79da dfbd 2781 e9bc e77d 68bc
00000110: be6a 33bd 17ed 023d f9e9 553d 3c0c febc
00000120: 7f52 f93c a679 6b3d dcfa 8d3c 4c18 e8bc
00000130: 9f6d 44bd ed71 4bbd 9150 92bb e597 aa3d
00000140: 2daf 3abc ad75 a43c 343a 31bd 571d cebc
00000150: 1465 2a3d 4d3a 323b 014f 4abc b61e 833c
00000160: 7dd7 deb8 2082 cf3b e42b 073d 9bd5 34bc
00000170: 1bc1 5ebd 613c ddbd 9161 14bc 0ee8 84bc
00000180: ce11 33be ba47 c7bd 0472 f63c d0dc 81bd
00000190: b5d1 65bd 9001 c4bd 41c3 94bd ade4 d9bd
000001a0: f785 d7bd 4f1f 1dbd b738 bbbb fc28 bdbd
000001b0: 0008 4d3d 4558 9abd e7c4 a9bd 9af8 7bbc
000001c0: 3a78 1fbb f874 18bd c26a edbd 3eb1 96bd
000001d0: cf43 5fbd 4223 31bd 4255 a1bd 4f32 94bc
000001e0: 32fd bdbd 33cc 69bd bd28 f0bc 639c a4bd
000001f0: 2918 e3bd a65f b7bd e0c9 453b 44a6 643d
00000200: 02e1 3ebc d68f edbd e389 2ebd 2a32 6abd
00000210: 8977 613c 4f99 f63c 715d 4d3d 0574 83bc
00000220: c521 6abd 92ca 8dbb 0d34 5e3c 1f2f 9dbc
00000230: 23b9 94bc 5ec5 d7bd cc40 f5bd b3a5 12bd
00000240: 41b8 e0bc 885b de3c 1b84 40bd 664e 723b
00000250: b9a1 fb3b 679e babc 59fe 763b 8372 1ebd
00000260: 9033 39bc fa28 38bd 5019 5abd ab99 f9bc
00000270: 9bf5 93bd c5ef fdbc c3b1 a6bc 4075 383d
00000280: 9415 e4bd c32d a7bd 1403 92bd 3170 51bd
00000290: 9f68 653c c044 81bc 5a8e 42bd 35e3 aa3c
000002a0: d659 813c 24e1 dfbd ff6e 05be 619f 6fbd
000002b0: ebd9 0fbd 7e8d 223d 1316 c63c 0a78 86bd
000002c0: b886 68bc 644b a73c 93dd 913c 14a9 49bd
000002d0: d90d 14bd 519f ad3c e1fd 65bd c21e 6f3d
000002e0: 7d25 87bd b528 89bc 6948 60bd ad4b 293c
000002f0: 75ed ddbc 96e3 a1bd 4a39 08bd 7967 42bd
00000300: 560b 3cbb e98f 043d 4dde debc 817d ccbd
00000310: ff5d 95bd ba67 67bc fbf5 81bd 6237 f3bd
00000320: 582d e8bc 3fc6 5cbd fd47 3ebc 827e 89bd
00000330: ecec 903b 6999 e6bd 7abd 813c 7c6f 91bd
00000340: 44ac 60bd 0437 00be 799f 533d e8bb 70bd
00000350: 25bf 56bd 2ce3 acbd 21bf 9abd b3bb 643b
00000360: a43a 32bc 6591 9cbd aea1 87bd 2973 adbd
00000370: 720e 38bd 3849 a5bc e491 c0bc 3cf6 b9bd
00000380: ff5e 88bd 7532 d4bc 241a 453c f221 70bd
00000390: a3f9 a8bc 789c 84bd d0a2 adbd 28aa 483c
000003a0: 7e25 aabd d4b6 15bc 34b7 82bc c485 ccbd
000003b0: 9233 d1bd 58fe d83c bd20 80bd 919e f7bd
000003c0: 432e d6bd 9944 743c f0c7 ebbc 431c 25bc
000003d0: 0ab0 2dbd 8f78 89bd e3fb 56bd 164a b3bd
000003e0: 24bc 39bb f5be 1cbd adca 77bd efe7 05bd
000003f0: 93d6 3e3d 4427 23bb d4ba bebc 0fbc 67bd
-0.025309118 -0.006698149 -0.0125093255 0.011122888 -0.028713005 -0.0008857694 -0.01847304 0.0269023
-0.006246711 -0.0078038895 0.0425131 0.009123998 -0.033649407 -0.06672315 -0.006017992 -0.08931403
-0.0046087583 0.020693524 -0.11201857 -0.14283428 -0.058475085 -0.024731899 0.019098217 0.041085027
-0.11036623 -0.13081057 -0.1220989 -0.009165342 -0.08178661 0.01543768 -0.0997163 -0.038556162
-0.059174594 -0.10668957 0.047589097 -0.053897236 -0.054982975 -0.05823912 0.038686547 -0.03198471
-0.012495577 -0.07507087 -0.027440405 -0.06571025 -0.055391908 -0.061190344 -0.05499132 -0.073691085
0.026474783 -0.07989827 -0.06462477 -0.06129356 -0.042411283 0.006239 -0.0929909 -0.06529342
-0.15574542 -0.09358325 -0.039576557 -0.07776859 -0.058421373 -0.067201994 -0.08961044 -0.10210862
-0.10789394 -0.10930342 -0.028503967 -0.014190174 -0.04380297 0.031964388 0.052225087 -0.031011693
0.030434845 0.05748906 0.017331533 -0.028331898 -0.047956105 -0.049669195 -0.0044651707 0.08329753
-0.011394304 0.020075643 -0.043268397 -0.025160475 0.0416003 0.0027195395 -0.012347938 0.016005855
-0.00010625923 0.006332651 0.03300084 -0.011037256 -0.05438338 -0.10802532 -0.009056465 -0.016223934
-0.1748726 -0.09730478 0.030083664 -0.06340945 -0.056108195 -0.095706105 -0.07263804 -0.106393196
-0.10523599 -0.038359936 -0.005713548 -0.09236333 0.050056458 -0.07536367 -0.08289509 -0.015379095
-0.0024333135 -0.037220925 -0.11592628 -0.07358025 -0.054508027 -0.043246515 -0.0787759 -0.018090395
-0.09276809 -0.057079505 -0.0293163 -0.08037641 -0.110885926 -0.0895379 0.0030180141 0.055822626
-0.011650326 -0.115997 -0.042611968 -0.057176746 0.01376141 0.0301024 0.05013794 -0.016046533
-0.05716111 -0.004327127 0.013562215 -0.019187508 -0.018154686 -0.10535692 -0.1197525 -0.035802554
-0.02743161 0.027143255 -0.047000986 0.0036972999 0.007679191 -0.02278061 0.0037688224 -0.038683426
-0.011303797 -0.044960953 -0.053246796 -0.030468782 -0.0722458 -0.03099812 -0.020348435 0.045033693
-0.11136928 -0.08163025 -0.07129493 -0.051132385 0.014001994 -0.015779853 -0.04749904 0.020860294
0.015789907 -0.10931614 -0.13030623 -0.058501605 -0.035119932 0.03968572 0.024180448 -0.065658644
-0.014192276 0.020421691 0.01780585 -0.04923351 -0.03614602 0.021194132 -0.05615032 0.058378942
-0.06598947 -0.016743043 -0.054756556 0.010332984 -0.027090767 -0.07904737 -0.03325776 -0.04746196
-0.002869328 0.032363806 -0.02720561 -0.099848755 -0.07293319 -0.014123851 -0.06345745 -0.11875798
-0.028341934 -0.0539 -0.011613843 -0.067135826 0.0044227745 -0.112597294 0.01583742 -0.07101342
-0.054851785 -0.12520987 0.051665757 -0.05877295 -0.052428383 -0.08441767 -0.07555986 0.0034901917
-0.010878239 -0.07644919 -0.06622635 -0.08469231 -0.04493565 -0.020176515 -0.023507066 -0.090801686
-0.06658744 -0.025902966 0.012030158 -0.058626123 -0.020626849 -0.064751565 -0.0847832 0.0122476
-0.08307932 -0.009137828 -0.015956499 -0.09986451 -0.102149144 0.026488468 -0.06256244 -0.12090791
-0.104580425 0.014908933 -0.028781861 -0.010077539 -0.042404212 -0.06712448 -0.05248631 -0.08754365
-0.00283409 -0.03826805 -0.06049602 -0.032691892 0.046591353 -0.002489523 -0.023282446 -0.05657583

b3.bias f4 [64]
00000000: c257 54bd 7f15 e4bd f243 85be aa6e 7440
00000010: 7301 4440 9c31 ffbf 4bc6 2dc0 0e42 88bf
00000020: 641e 01c0 987a 72bf 2164 f9bd d8c5 f13f
00000030: 232f 44c0 9099 b83f 3f73 6ebe 4517 48bf
00000040: eb38 a03e 8998 0640 656c 1dbe 3997 f3bf
00000050: d258 4d3f 8168 16c0 abdb 4b40 7b1d 19be
00000060: 9b51 fbbe a0d0 28be 7005 bc3f f5ff 03bf
00000070: 0184 dfbf 5ddf 1f3e 0a8f 88bf cf46 ecbd
00000080: 47cc 2e3f c07a a140 d21b 8f3e d6dd c03e
00000090: 8e78 08c0 7fee 7640 f46a 253f 9a20 08c0
000000a0: a7c6 e3ba 481b f83e e07a 0540 8394 a23f
000000b0: ca15 56bf 23f3 2a40 de8c 4dbf 6268 0ac0
000000c0: ce61 7e3e 2d44 e6bf 3bc2 9b3f e57d ffbf
000000d0: 5f98 d23e 7773 1f40 4ece 0c40 5cab aebf
000000e0: 8b15 cbbf e0a1 803f 5d11 1cc0 44b5 ffbd
000000f0: 8cdc 2d40 fa76 4940 85d0 8a3e 113d fb3f
-0.051841505 -0.111369126 -0.260284 3.8192544 3.0625885 -1.9937015 -2.7152278 -1.0645158
-2.01748 -0.94718313 -0.12177301 1.8888502 -3.065377 1.4421864 -0.2328615 -0.78160506
0.31293425 2.10306 -0.1537338 -1.9030524 0.80213654 -2.3501284 3.1852825 -0.14952652
-0.49085698 -0.16485834 1.4689159 -0.51562434 -1.7462159 0.1561255 -1.0668652 -0.11536943
0.6828045 5.046234 0.27950913 0.37669247 -2.132358 3.8583066 0.6461632 -2.1269898
-0.0017377929 0.48458314 2.0856247 1.2701572 -0.83627 2.67109 -0.8029307 -2.162621
0.24841997 -1.7989556 1.216865 -1.9960295 0.41131875 2.4914224 2.2000918 -1.3646045
-1.5865949 1.00494 -2.4385598 -0.124857455 2.716586 3.1478868 0.27112213 1.9628011

c1.weight f4 [64, 64, 2, 2]
00000000: 2941 983d b6d3 4ebd f0d2 cd3c 5175 013d
00000010: 41b0 033b f7f7 843c 6a79 3a3d 80e1 4bbd
00000020: 3dbb de3c b463 693d 10b5 9abc 2eec 423d
00000030: 4ee1 bf3d 7cfb 04be 5790 203e 466a 37bf
00000040: 958b efbe 61a0 aebd e64b df3d f747 a9bf
00000050: 1172 99bf db8e 7cbd 0e3c 82bd b242 eabf
00000060: 77c6 23c0 76c2 1cbd b0fe 94bf f21e 08c0
00000070: d8ad b63d 1415 52bd fd2f 0abf e335 87be
00000080: ceb2 e93e fea3 d23c 3b41 3cbf d86f 93be
00000090: b75f cabf edc5 9239 2c84 7b3e 4aad ec3c
000000a0: fda9 a03d f855 2fbd 882a 5e3d 9df8 6bbc
000000b0: 0f80 023f aada 3dbd 2370 92bf 9e07 ab3e
000000c0: c82e 97bf 33ce 02bc 7fed 103e 72a1 6f3f
000000d0: 0127 35be f78f 27bb ebd8 1c3f df91 66bd
000000e0: fa94 623d 7444 5cbd e817 c63c c0b1 0d3c
000000f0: 458c 38bf 9030 fdbc 74be df3e 2d07 29bf
00000100: 582d c9be acac 49bd 5b7c c63e d19d d83d
00000110: b755 34bf f9d8 6abc 5e4a f1be ad84 efbf
00000120: b1da 423d b8de 8cbc 0a68 343d 7c3a 303d
00000130: d319 80be 9073 89b9 381e 673f 61ea f43e
00000140: 443e e93f 3034 aebc ce37 c83f 5f6a da3f
00000150: 6657 e9be fcad c8bc 1d5f dbbe 7928 833e
00000160: 66af 753f 15f3 f8bd b4ea b7be c6e9 003e
00000170: 30a3 543d c849 84bc 1a05 493d 0ace 533c
00000180: b469 a13f e46b 48bd 0883 933f ba03 76bd
00000190: 7546 8f3d 0e59 583d 80dc b53c b551 a3bd
000001a0: 679b 1dbe 3b48 893b 37c1 583e bde5 8e3f
000001b0: 43b5 a83e 5564 48bc 0a9f 1fbf 7698 9a3f
000001c0: fc46 183e 464f cebc 13ab 563f 54be 47be
000001d0: 6b7f e93f 2221 873c 5112 e83e 3843 0abf
000001e0: b709 a43d 0ccd b03c 7d1a e53e acb9 b23e
000001f0: 0582 0c3d ac5e 373d 7cd7 18bd 79e0 9bbb
00000200: fc7d b73e 869c cfbd 98a5 abbe 515d 623e
00000210: 334e 9dbe 1bd4 1dbe 5ade 99bc 1e12 a5bf
00000220: 43a3 d4be 7f4f 1fbd 7ebc 4c3f 25f1 4bbf
00000230: 2387 b03e 383e abbc d2fa ac3e 4b99 7dbf
00000240: 153f c6bf 800e 2bbd 1916 283f ef1b 043f
00000250: 1ed5 123f f017 30bd 0e01 cabf 54de 35c0
00000260: 1f74 59be 1984 9cbb 742b 853f 3459 2abd
00000270: 04c3 9e3e a65d d4bc 0c14 763d b305 9abf
00000280: d3ee 9dbe f391 513c 494e 7bbf 0276 4cbf
00000290: bbad d43e 4de5 9fbd ebf5 d53e 158c 7f3e
000002a0: 1949 dbbd a5cd 93bd d054 edbd 94b8 dbbe
000002b0: abd7 f73e 3c23 c9bd ebcd fb3d 7fb1 c23e
000002c0: 5f7f 8bbe ade9 57bd 08d2 903e 383a f53e
000002d0: 7956 3cbf 40b1 adbd 9e58 a13f cebf d1bd
000002e0: a832 e7bf 00e4 cebb 27ec 39bf 509a 52bf
000002f0: 5dee 1440 6ccb 1abd c0ae 18bf 7457 873e
00000300: 85bb 5d3e 57a0 33bd 5d40 943e 7f10 1c3e
00000310: 26e6 20bf 357f f8bb 9d3e 39be acb5 87bf
00000320: 4616 ff3d ad25 fdbc 4e0b 05c0 3701 493f
00000330: 2b5a 1ac0 ec05 223b 69ed 333f 691c 78bf
00000340: 6a2c 45be b129 853c a405 85bf 0f56 533f
00000350: d15c 573e f963 a1bd 3ac9 453f 8ab1 6dbe
00000360: b4c8 62bf fe60 70bd b062 043f c31b 003f
00000370: a798 07bf 80f4 6fbb e930 2f3f 2404 81be
00000380: 079d 28be 386b 303c b63b 533f fc03 9e3e
00000390: 25b4 733d 7b19 b2bd f470 643f f649 5f3e
000003a0: 466e 4640 74c6 08bd d386 98bf 0f02 40bf
000003b0: ffc1 803d b911 493d 9416 81bc 58ec e2bc
000003c0: 99de 743f 06f2 01bd 7a36 c4be d670 35bf
000003d0: 2e87 873e 6bc0 94bd 4c2c febf 6dcc ccbd
000003e0: 3dc6 1abf bdff 29bc 67c6 40be 326a 903f
000003f0: 975e 10be ea47 b7bc c350 b6bd 2c9f f43d
0.07434303 -0.050494872 0.025124997 0.031606022 0.002009407 0.01623152 0.045525946 -0.0497756
0.027188892 0.05697985 -0.018885165 0.04758852 0.09369145 -0.12986559 0.15680061 -0.71646535
-0.4678618 -0.085266836 0.10903148 -1.3225087 -1.1987935 -0.061659675 -0.06359111 -1.8301604
-2.5589883 -0.03827139 -1.1640224 -2.1268888 0.08919877 -0.051289633 -0.53979474 -0.264083
0.4564423 0.025712963 -0.73537034 -0.28796268 -1.581046 0.00027994756 0.24562138 0.028891224
0.07844923 -0.042806596 0.05423978 -0.014402536 0.5097665 -0.046351112 -1.1440471 0.3340425
-1.1811152 -0.007983732 0.14153098 0.9360572 -0.1769066 -0.0025567987 0.6126849 -0.056291457
0.055317856 -0.05377622 0.024181321 0.008648336 -0.72089034 -0.030906945 0.43699992 -0.66026574
-0.39292407 -0.04923694 0.3876675 0.10576976 -0.7044329 -0.014333957 -0.4712705 -1.8712364
0.04757184 -0.017196044 0.044044532 0.043024525 -0.25019702 -0.00026216777 0.90280485 0.47835067
1.8222127 -0.02126512 1.564203 1.7063712 -0.45574492 -0.024497025 -0.42846003 0.25616816
0.9597076 -0.12155739 -0.35921252 0.12589177 0.05191344 -0.016148463 0.04907713 0.0129275415
1.2610383 -0.048931018 1.1524363 -0.060062148 0.069958605 0.052819304 0.02219987 -0.07974569
-0.15391313 0.0041895187 0.21167456 1.116386 0.32950792 -0.012230952 -0.6235205 1.2077777
0.14870828 -0.025184285 0.8385479 -0.19506198 1.824201 0.016495291 0.45326474 -0.5400882
0.080096655 0.021582149 0.4474677 0.3490728 0.034303684 0.04476802 -0.037314877 -0.004756984
0.35838306 -0.10137276 -0.33524776 0.2210591 -0.30723724 -0.15412943 -0.018782783 -1.2896154
-0.4153081 -0.038894173 0.79975116 -0.7966483 0.344781 -0.020903692 0.3378511 -0.9906203
-1.5488001 -0.041761875 0.6565872 0.51605123 0.5735644 -0.04299158 -1.5781572 -2.8416948
-0.21235703 -0.0047764895 1.0403886 -0.041588977 0.3100816 -0.025923561 0.060077712 -1.2032989
-0.3084627 0.012791145 -0.9816633 -0.79867566 0.41538796 -0.078074075 0.41789183 0.24955781
-0.10707302 -0.07216958 -0.11588442 -0.4291426 0.4840673 -0.098211735 0.12295135 0.38026044
-0.27245614 -0.052713085 0.2828524 0.4789598 -0.73569447 -0.084810734 1.2605169 -0.10241662
-1.8062334 -0.006313801 -0.72625965 -0.8226671 2.3270485 -0.037791654 -0.5964165 0.2643391
0.21653564 -0.043854084 0.28955355 0.15240668 -0.6285118 -0.0075835236 -0.18090291 -1.0602317
0.1245542 -0.030901754 -2.078815 0.7851748 -2.4117534 0.0024722768 0.70284134 -0.9691835
-0.19255224 0.016255232 -1.0392346 0.8255319 0.210315 -0.078803964 0.7726017 -0.23212257
-0.885875 -0.05868625 0.51713085 0.5004236 -0.52967304 -0.003661424 0.68434006 -0.25198472
-0.16466151 0.01076775 0.82512987 0.30862415 0.05949797 -0.08696266 0.8923485 0.21805558
3.1004806 -0.033392385 -1.1916145 -0.7500314 0.06287002 0.049089167 -0.015757836 -0.027700588
0.9565216 -0.031724952 -0.38322812 -0.708753 0.2647032 -0.07263263 -1.9857268 -0.099999286
-0.6045874 -0.010375914 -0.18825684 1.1282408 -0.14098583 -0.022373158 -0.08902123 0.11944422

c1.bias f4 [64]
00000000: 7afc 8dbf a90a 60c0 2dd8 65c0 84cf 4dc0
00000010: 6c08 6bc0 dbdc a6bf baa5 88c0 8e53 1dc0
00000020: 44e4 8ec0 1d64 17c0 17f0 9ac0 11f2 77c0
00000030: 5cc7 65c0 9f34 6bc0 e9bd 72c0 96e0 f83e
00000040: 2616 bebe cc83 0cc0 b07f 2cbf 0a56 abbf
00000050: 91a0 40bf d813 0fc0 4fc7 9cc0 1848 90c0
00000060: b95f f0bf eb73 a7c0 2654 71c0 0096 8dbf
00000070: b8fd febf 78b3 82bf 342d 5fc0 82b2 f6bf
00000080: bd3c 953f 0d0b 4dc0 b7b2 a1c0 d91d 1dc0
00000090: 1500 02c0 9725 0340 d6f3 36c0 8aee 8fc0
000000a0: 78c8 7ec0 48aa 88c0 f8c2 f7bf ab60 9bbf
000000b0: 4fea 8ac0 42fc ba3e ed57 d63f 4b9e 66bf
000000c0: 801b 70c0 a2ef 34c0 9fcf 96c0 29c7 6fc0
000000d0: fc1d 0ac0 aba4 b83f 4440 8d40 52bc 82c0
000000e0: 1c23 3ec0 e8d6 16c0 dacd 13c0 fea7 3fc0
000000f0: 7087 7ebf 908b a2c0 3607 e240 4d87 84c0
-1.1092675 -3.5006506 -3.5913193 -3.2157907 -3.672389 -1.303615 -4.2702303 -2.4582248
-4.4653645 -2.3654854 -4.841808 -3.8741496 -3.590293 -3.6750867 -3.7928412 0.48608845
-0.37126273 -2.1955442 -0.67382336 -1.3385632 -0.75245005 -2.2355862 -4.8993297 -4.5088005
-1.8779212 -5.2329 -3.770761 -1.1061401 -1.9921179 -1.021102 -3.487134 -1.9273226
1.1659161 -3.2037995 -5.053066 -2.4549468 -2.031255 2.0491693 -2.8586326 -4.4978685
-3.9809856 -4.2707863 -1.9356375 -1.2138876 -4.341102 0.36520582 1.6745583 -0.90085286
-3.7516785 -2.827126 -4.7128444 -3.7465308 -2.15808 1.4425253 4.414095 -4.0854883
-2.970893 -2.3568668 -2.3094392 -2.9946284 -0.9942541 -5.0795364 7.0633802 -4.141516
